…
training args are: Namespace(batch_size=128, bs_per_gpu=32, cache_ram=False, calib=False, check_images=False, check_labels=False, conf_file='configs/yolov6_lite/yolov6_lite_s.py', data_path='data/coco.yaml', device='0', dist_url='env://', distill=False, distill_feat=False, epochs=1, eval_final_only=False, eval_interval=20, fuse_ab=False, gpu_count=0, heavy_eval_range=50, height=None, img_size=416, local_rank=0, name='yolov6_lite_s_coco', output_dir='./runs/train', quant=False, rank=0, rect=False, resume=False, save_ckpt_on_last_n_epoch=-1, save_dir='runs/train/yolov6_lite_s_coco2', specific_shape=False, stop_aug_last_n_epoch=15, teacher_model_path=None, temperature=20, width=None, workers=8, world_size=1, write_trainbatch_tb=False)

Initializing process group... 
Model: Model(
  (backbone): Lite_EffiBackbone(
    (conv_0): ConvBNHS(
      (block): ConvModule(
        (conv): Conv2d(3, 24, kernel_size=(3, 3), stride=(2, 2), padding=(1, 1), bias=False)
        (bn): BatchNorm2d(24, eps=0.001, momentum=0.03, affine=True, track_running_stats=True)
        (act): Hardswish()
      )
    )
    (lite_effiblock_1): Sequential(
      (0): Lite_EffiBlockS2(
        (conv_dw_1): ConvBN(
          (block): ConvModule(
            (conv): Conv2d(24, 24, kernel_size=(3, 3), stride=(2, 2), padding=(1, 1), groups=24, bias=False)
            (bn): BatchNorm2d(24, eps=0.001, momentum=0.03, affine=True, track_running_stats=True)
          )
        )
        (conv_1): ConvBNHS(
          (block): ConvModule(
            (conv): Conv2d(24, 16, kernel_size=(1, 1), stride=(1, 1), bias=False)
            (bn): BatchNorm2d(16, eps=0.001, momentum=0.03, affine=True, track_running_stats=True)
            (act): Hardswish()
          )
        )
        (conv_pw_2): ConvBNHS(
          (block): ConvModule(
            (conv): Conv2d(24, 8, kernel_size=(1, 1), stride=(1, 1), bias=False)
            (bn): BatchNorm2d(8, eps=0.001, momentum=0.03, affine=True, track_running_stats=True)
            (act): Hardswish()
          )
        )
        (conv_dw_2): ConvBN(
          (block): ConvModule(
            (conv): Conv2d(8, 8, kernel_size=(3, 3), stride=(2, 2), padding=(1, 1), groups=8, bias=False)
            (bn): BatchNorm2d(8, eps=0.001, momentum=0.03, affine=True, track_running_stats=True)
          )
        )
        (se): SEBlock(
          (avg_pool): AdaptiveAvgPool2d(output_size=1)
          (conv1): Conv2d(8, 2, kernel_size=(1, 1), stride=(1, 1))
          (relu): ReLU(inplace=True)
          (conv2): Conv2d(2, 8, kernel_size=(1, 1), stride=(1, 1))
          (hardsigmoid): Hardsigmoid()
        )
        (conv_2): ConvBNHS(
          (block): ConvModule(
            (conv): Conv2d(8, 16, kernel_size=(1, 1), stride=(1, 1), bias=False)
            (bn): BatchNorm2d(16, eps=0.001, momentum=0.03, affine=True, track_running_stats=True)
            (act): Hardswish()
          )
        )
        (conv_dw_3): ConvBNHS(
          (block): ConvModule(
            (conv): Conv2d(32, 32, kernel_size=(3, 3), stride=(1, 1), padding=(1, 1), groups=32, bias=False)
            (bn): BatchNorm2d(32, eps=0.001, momentum=0.03, affine=True, track_running_stats=True)
            (act): Hardswish()
          )
        )
        (conv_pw_3): ConvBNHS(
          (block): ConvModule(
            (conv): Conv2d(32, 32, kernel_size=(1, 1), stride=(1, 1), bias=False)
            (bn): BatchNorm2d(32, eps=0.001, momentum=0.03, affine=True, track_running_stats=True)
            (act): Hardswish()
          )
        )
      )
    )
    (lite_effiblock_2): Sequential(
      (0): Lite_EffiBlockS2(
        (conv_dw_1): ConvBN(
          (block): ConvModule(
            (conv): Conv2d(32, 32, kernel_size=(3, 3), stride=(2, 2), padding=(1, 1), groups=32, bias=False)
            (bn): BatchNorm2d(32, eps=0.001, momentum=0.03, affine=True, track_running_stats=True)
          )
        )
        (conv_1): ConvBNHS(
          (block): ConvModule(
            (conv): Conv2d(32, 24, kernel_size=(1, 1), stride=(1, 1), bias=False)
            (bn): BatchNorm2d(24, eps=0.001, momentum=0.03, affine=True, track_running_stats=True)
            (act): Hardswish()
          )
        )
        (conv_pw_2): ConvBNHS(
          (block): ConvModule(
            (conv): Conv2d(32, 12, kernel_size=(1, 1), stride=(1, 1), bias=False)
            (bn): BatchNorm2d(12, eps=0.001, momentum=0.03, affine=True, track_running_stats=True)
            (act): Hardswish()
          )
        )
        (conv_dw_2): ConvBN(
          (block): ConvModule(
            (conv): Conv2d(12, 12, kernel_size=(3, 3), stride=(2, 2), padding=(1, 1), groups=12, bias=False)
            (bn): BatchNorm2d(12, eps=0.001, momentum=0.03, affine=True, track_running_stats=True)
          )
        )
        (se): SEBlock(
          (avg_pool): AdaptiveAvgPool2d(output_size=1)
          (conv1): Conv2d(12, 3, kernel_size=(1, 1), stride=(1, 1))
          (relu): ReLU(inplace=True)
          (conv2): Conv2d(3, 12, kernel_size=(1, 1), stride=(1, 1))
          (hardsigmoid): Hardsigmoid()
        )
        (conv_2): ConvBNHS(
          (block): ConvModule(
            (conv): Conv2d(12, 24, kernel_size=(1, 1), stride=(1, 1), bias=False)
            (bn): BatchNorm2d(24, eps=0.001, momentum=0.03, affine=True, track_running_stats=True)
            (act): Hardswish()
          )
        )
        (conv_dw_3): ConvBNHS(
          (block): ConvModule(
            (conv): Conv2d(48, 48, kernel_size=(3, 3), stride=(1, 1), padding=(1, 1), groups=48, bias=False)
            (bn): BatchNorm2d(48, eps=0.001, momentum=0.03, affine=True, track_running_stats=True)
            (act): Hardswish()
          )
        )
        (conv_pw_3): ConvBNHS(
          (block): ConvModule(
            (conv): Conv2d(48, 48, kernel_size=(1, 1), stride=(1, 1), bias=False)
            (bn): BatchNorm2d(48, eps=0.001, momentum=0.03, affine=True, track_running_stats=True)
            (act): Hardswish()
          )
        )
      )
      (1): Lite_EffiBlockS1(
        (conv_pw_1): ConvBNHS(
          (block): ConvModule(
            (conv): Conv2d(24, 24, kernel_size=(1, 1), stride=(1, 1), bias=False)
            (bn): BatchNorm2d(24, eps=0.001, momentum=0.03, affine=True, track_running_stats=True)
            (act): Hardswish()
          )
        )
        (conv_dw_1): ConvBN(
          (block): ConvModule(
            (conv): Conv2d(24, 24, kernel_size=(3, 3), stride=(1, 1), padding=(1, 1), groups=24, bias=False)
            (bn): BatchNorm2d(24, eps=0.001, momentum=0.03, affine=True, track_running_stats=True)
          )
        )
        (se): SEBlock(
          (avg_pool): AdaptiveAvgPool2d(output_size=1)
          (conv1): Conv2d(24, 6, kernel_size=(1, 1), stride=(1, 1))
          (relu): ReLU(inplace=True)
          (conv2): Conv2d(6, 24, kernel_size=(1, 1), stride=(1, 1))
          (hardsigmoid): Hardsigmoid()
        )
        (conv_1): ConvBNHS(
          (block): ConvModule(
            (conv): Conv2d(24, 24, kernel_size=(1, 1), stride=(1, 1), bias=False)
            (bn): BatchNorm2d(24, eps=0.001, momentum=0.03, affine=True, track_running_stats=True)
            (act): Hardswish()
          )
        )
      )
      (2): Lite_EffiBlockS1(
        (conv_pw_1): ConvBNHS(
          (block): ConvModule(
            (conv): Conv2d(24, 24, kernel_size=(1, 1), stride=(1, 1), bias=False)
            (bn): BatchNorm2d(24, eps=0.001, momentum=0.03, affine=True, track_running_stats=True)
            (act): Hardswish()
          )
        )
        (conv_dw_1): ConvBN(
          (block): ConvModule(
            (conv): Conv2d(24, 24, kernel_size=(3, 3), stride=(1, 1), padding=(1, 1), groups=24, bias=False)
            (bn): BatchNorm2d(24, eps=0.001, momentum=0.03, affine=True, track_running_stats=True)
          )
        )
        (se): SEBlock(
          (avg_pool): AdaptiveAvgPool2d(output_size=1)
          (conv1): Conv2d(24, 6, kernel_size=(1, 1), stride=(1, 1))
          (relu): ReLU(inplace=True)
          (conv2): Conv2d(6, 24, kernel_size=(1, 1), stride=(1, 1))
          (hardsigmoid): Hardsigmoid()
        )
        (conv_1): ConvBNHS(
          (block): ConvModule(
            (conv): Conv2d(24, 24, kernel_size=(1, 1), stride=(1, 1), bias=False)
            (bn): BatchNorm2d(24, eps=0.001, momentum=0.03, affine=True, track_running_stats=True)
            (act): Hardswish()
          )
        )
      )
    )
    (lite_effiblock_3): Sequential(
      (0): Lite_EffiBlockS2(
        (conv_dw_1): ConvBN(
          (block): ConvModule(
            (conv): Conv2d(48, 48, kernel_size=(3, 3), stride=(2, 2), padding=(1, 1), groups=48, bias=False)
            (bn): BatchNorm2d(48, eps=0.001, momentum=0.03, affine=True, track_running_stats=True)
          )
        )
        (conv_1): ConvBNHS(
          (block): ConvModule(
            (conv): Conv2d(48, 48, kernel_size=(1, 1), stride=(1, 1), bias=False)
            (bn): BatchNorm2d(48, eps=0.001, momentum=0.03, affine=True, track_running_stats=True)
            (act): Hardswish()
          )
        )
        (conv_pw_2): ConvBNHS(
          (block): ConvModule(
            (conv): Conv2d(48, 24, kernel_size=(1, 1), stride=(1, 1), bias=False)
            (bn): BatchNorm2d(24, eps=0.001, momentum=0.03, affine=True, track_running_stats=True)
            (act): Hardswish()
          )
        )
        (conv_dw_2): ConvBN(
          (block): ConvModule(
            (conv): Conv2d(24, 24, kernel_size=(3, 3), stride=(2, 2), padding=(1, 1), groups=24, bias=False)
            (bn): BatchNorm2d(24, eps=0.001, momentum=0.03, affine=True, track_running_stats=True)
          )
        )
        (se): SEBlock(
          (avg_pool): AdaptiveAvgPool2d(output_size=1)
          (conv1): Conv2d(24, 6, kernel_size=(1, 1), stride=(1, 1))
          (relu): ReLU(inplace=True)
          (conv2): Conv2d(6, 24, kernel_size=(1, 1), stride=(1, 1))
          (hardsigmoid): Hardsigmoid()
        )
        (conv_2): ConvBNHS(
          (block): ConvModule(
            (conv): Conv2d(24, 48, kernel_size=(1, 1), stride=(1, 1), bias=False)
            (bn): BatchNorm2d(48, eps=0.001, momentum=0.03, affine=True, track_running_stats=True)
            (act): Hardswish()
          )
        )
        (conv_dw_3): ConvBNHS(
          (block): ConvModule(
            (conv): Conv2d(96, 96, kernel_size=(3, 3), stride=(1, 1), padding=(1, 1), groups=96, bias=False)
            (bn): BatchNorm2d(96, eps=0.001, momentum=0.03, affine=True, track_running_stats=True)
            (act): Hardswish()
          )
        )
        (conv_pw_3): ConvBNHS(
          (block): ConvModule(
            (conv): Conv2d(96, 96, kernel_size=(1, 1), stride=(1, 1), bias=False)
            (bn): BatchNorm2d(96, eps=0.001, momentum=0.03, affine=True, track_running_stats=True)
            (act): Hardswish()
          )
        )
      )
      (1): Lite_EffiBlockS1(
        (conv_pw_1): ConvBNHS(
          (block): ConvModule(
            (conv): Conv2d(48, 48, kernel_size=(1, 1), stride=(1, 1), bias=False)
            (bn): BatchNorm2d(48, eps=0.001, momentum=0.03, affine=True, track_running_stats=True)
            (act): Hardswish()
          )
        )
        (conv_dw_1): ConvBN(
          (block): ConvModule(
            (conv): Conv2d(48, 48, kernel_size=(3, 3), stride=(1, 1), padding=(1, 1), groups=48, bias=False)
            (bn): BatchNorm2d(48, eps=0.001, momentum=0.03, affine=True, track_running_stats=True)
          )
        )
        (se): SEBlock(
          (avg_pool): AdaptiveAvgPool2d(output_size=1)
          (conv1): Conv2d(48, 12, kernel_size=(1, 1), stride=(1, 1))
          (relu): ReLU(inplace=True)
          (conv2): Conv2d(12, 48, kernel_size=(1, 1), stride=(1, 1))
          (hardsigmoid): Hardsigmoid()
        )
        (conv_1): ConvBNHS(
          (block): ConvModule(
            (conv): Conv2d(48, 48, kernel_size=(1, 1), stride=(1, 1), bias=False)
            (bn): BatchNorm2d(48, eps=0.001, momentum=0.03, affine=True, track_running_stats=True)
            (act): Hardswish()
          )
        )
      )
      (2): Lite_EffiBlockS1(
        (conv_pw_1): ConvBNHS(
          (block): ConvModule(
            (conv): Conv2d(48, 48, kernel_size=(1, 1), stride=(1, 1), bias=False)
            (bn): BatchNorm2d(48, eps=0.001, momentum=0.03, affine=True, track_running_stats=True)
            (act): Hardswish()
          )
        )
        (conv_dw_1): ConvBN(
          (block): ConvModule(
            (conv): Conv2d(48, 48, kernel_size=(3, 3), stride=(1, 1), padding=(1, 1), groups=48, bias=False)
            (bn): BatchNorm2d(48, eps=0.001, momentum=0.03, affine=True, track_running_stats=True)
          )
        )
        (se): SEBlock(
          (avg_pool): AdaptiveAvgPool2d(output_size=1)
          (conv1): Conv2d(48, 12, kernel_size=(1, 1), stride=(1, 1))
          (relu): ReLU(inplace=True)
          (conv2): Conv2d(12, 48, kernel_size=(1, 1), stride=(1, 1))
          (hardsigmoid): Hardsigmoid()
        )
        (conv_1): ConvBNHS(
          (block): ConvModule(
            (conv): Conv2d(48, 48, kernel_size=(1, 1), stride=(1, 1), bias=False)
            (bn): BatchNorm2d(48, eps=0.001, momentum=0.03, affine=True, track_running_stats=True)
            (act): Hardswish()
          )
        )
      )
      (3): Lite_EffiBlockS1(
        (conv_pw_1): ConvBNHS(
          (block): ConvModule(
            (conv): Conv2d(48, 48, kernel_size=(1, 1), stride=(1, 1), bias=False)
            (bn): BatchNorm2d(48, eps=0.001, momentum=0.03, affine=True, track_running_stats=True)
            (act): Hardswish()
          )
        )
        (conv_dw_1): ConvBN(
          (block): ConvModule(
            (conv): Conv2d(48, 48, kernel_size=(3, 3), stride=(1, 1), padding=(1, 1), groups=48, bias=False)
            (bn): BatchNorm2d(48, eps=0.001, momentum=0.03, affine=True, track_running_stats=True)
          )
        )
        (se): SEBlock(
          (avg_pool): AdaptiveAvgPool2d(output_size=1)
          (conv1): Conv2d(48, 12, kernel_size=(1, 1), stride=(1, 1))
          (relu): ReLU(inplace=True)
          (conv2): Conv2d(12, 48, kernel_size=(1, 1), stride=(1, 1))
          (hardsigmoid): Hardsigmoid()
        )
        (conv_1): ConvBNHS(
          (block): ConvModule(
            (conv): Conv2d(48, 48, kernel_size=(1, 1), stride=(1, 1), bias=False)
            (bn): BatchNorm2d(48, eps=0.001, momentum=0.03, affine=True, track_running_stats=True)
            (act): Hardswish()
          )
        )
      )
      (4): Lite_EffiBlockS1(
        (conv_pw_1): ConvBNHS(
          (block): ConvModule(
            (conv): Conv2d(48, 48, kernel_size=(1, 1), stride=(1, 1), bias=False)
            (bn): BatchNorm2d(48, eps=0.001, momentum=0.03, affine=True, track_running_stats=True)
            (act): Hardswish()
          )
        )
        (conv_dw_1): ConvBN(
          (block): ConvModule(
            (conv): Conv2d(48, 48, kernel_size=(3, 3), stride=(1, 1), padding=(1, 1), groups=48, bias=False)
            (bn): BatchNorm2d(48, eps=0.001, momentum=0.03, affine=True, track_running_stats=True)
          )
        )
        (se): SEBlock(
          (avg_pool): AdaptiveAvgPool2d(output_size=1)
          (conv1): Conv2d(48, 12, kernel_size=(1, 1), stride=(1, 1))
          (relu): ReLU(inplace=True)
          (conv2): Conv2d(12, 48, kernel_size=(1, 1), stride=(1, 1))
          (hardsigmoid): Hardsigmoid()
        )
        (conv_1): ConvBNHS(
          (block): ConvModule(
            (conv): Conv2d(48, 48, kernel_size=(1, 1), stride=(1, 1), bias=False)
            (bn): BatchNorm2d(48, eps=0.001, momentum=0.03, affine=True, track_running_stats=True)
            (act): Hardswish()
          )
        )
      )
      (5): Lite_EffiBlockS1(
        (conv_pw_1): ConvBNHS(
          (block): ConvModule(
            (conv): Conv2d(48, 48, kernel_size=(1, 1), stride=(1, 1), bias=False)
            (bn): BatchNorm2d(48, eps=0.001, momentum=0.03, affine=True, track_running_stats=True)
            (act): Hardswish()
          )
        )
        (conv_dw_1): ConvBN(
          (block): ConvModule(
            (conv): Conv2d(48, 48, kernel_size=(3, 3), stride=(1, 1), padding=(1, 1), groups=48, bias=False)
            (bn): BatchNorm2d(48, eps=0.001, momentum=0.03, affine=True, track_running_stats=True)
          )
        )
        (se): SEBlock(
          (avg_pool): AdaptiveAvgPool2d(output_size=1)
          (conv1): Conv2d(48, 12, kernel_size=(1, 1), stride=(1, 1))
          (relu): ReLU(inplace=True)
          (conv2): Conv2d(12, 48, kernel_size=(1, 1), stride=(1, 1))
          (hardsigmoid): Hardsigmoid()
        )
        (conv_1): ConvBNHS(
          (block): ConvModule(
            (conv): Conv2d(48, 48, kernel_size=(1, 1), stride=(1, 1), bias=False)
            (bn): BatchNorm2d(48, eps=0.001, momentum=0.03, affine=True, track_running_stats=True)
            (act): Hardswish()
          )
        )
      )
      (6): Lite_EffiBlockS1(
        (conv_pw_1): ConvBNHS(
          (block): ConvModule(
            (conv): Conv2d(48, 48, kernel_size=(1, 1), stride=(1, 1), bias=False)
            (bn): BatchNorm2d(48, eps=0.001, momentum=0.03, affine=True, track_running_stats=True)
            (act): Hardswish()
          )
        )
        (conv_dw_1): ConvBN(
          (block): ConvModule(
            (conv): Conv2d(48, 48, kernel_size=(3, 3), stride=(1, 1), padding=(1, 1), groups=48, bias=False)
            (bn): BatchNorm2d(48, eps=0.001, momentum=0.03, affine=True, track_running_stats=True)
          )
        )
        (se): SEBlock(
          (avg_pool): AdaptiveAvgPool2d(output_size=1)
          (conv1): Conv2d(48, 12, kernel_size=(1, 1), stride=(1, 1))
          (relu): ReLU(inplace=True)
          (conv2): Conv2d(12, 48, kernel_size=(1, 1), stride=(1, 1))
          (hardsigmoid): Hardsigmoid()
        )
        (conv_1): ConvBNHS(
          (block): ConvModule(
            (conv): Conv2d(48, 48, kernel_size=(1, 1), stride=(1, 1), bias=False)
            (bn): BatchNorm2d(48, eps=0.001, momentum=0.03, affine=True, track_running_stats=True)
            (act): Hardswish()
          )
        )
      )
    )
    (lite_effiblock_4): Sequential(
      (0): Lite_EffiBlockS2(
        (conv_dw_1): ConvBN(
          (block): ConvModule(
            (conv): Conv2d(96, 96, kernel_size=(3, 3), stride=(2, 2), padding=(1, 1), groups=96, bias=False)
            (bn): BatchNorm2d(96, eps=0.001, momentum=0.03, affine=True, track_running_stats=True)
          )
        )
        (conv_1): ConvBNHS(
          (block): ConvModule(
            (conv): Conv2d(96, 88, kernel_size=(1, 1), stride=(1, 1), bias=False)
            (bn): BatchNorm2d(88, eps=0.001, momentum=0.03, affine=True, track_running_stats=True)
            (act): Hardswish()
          )
        )
        (conv_pw_2): ConvBNHS(
          (block): ConvModule(
            (conv): Conv2d(96, 44, kernel_size=(1, 1), stride=(1, 1), bias=False)
            (bn): BatchNorm2d(44, eps=0.001, momentum=0.03, affine=True, track_running_stats=True)
            (act): Hardswish()
          )
        )
        (conv_dw_2): ConvBN(
          (block): ConvModule(
            (conv): Conv2d(44, 44, kernel_size=(3, 3), stride=(2, 2), padding=(1, 1), groups=44, bias=False)
            (bn): BatchNorm2d(44, eps=0.001, momentum=0.03, affine=True, track_running_stats=True)
          )
        )
        (se): SEBlock(
          (avg_pool): AdaptiveAvgPool2d(output_size=1)
          (conv1): Conv2d(44, 11, kernel_size=(1, 1), stride=(1, 1))
          (relu): ReLU(inplace=True)
          (conv2): Conv2d(11, 44, kernel_size=(1, 1), stride=(1, 1))
          (hardsigmoid): Hardsigmoid()
        )
        (conv_2): ConvBNHS(
          (block): ConvModule(
            (conv): Conv2d(44, 88, kernel_size=(1, 1), stride=(1, 1), bias=False)
            (bn): BatchNorm2d(88, eps=0.001, momentum=0.03, affine=True, track_running_stats=True)
            (act): Hardswish()
          )
        )
        (conv_dw_3): ConvBNHS(
          (block): ConvModule(
            (conv): Conv2d(176, 176, kernel_size=(3, 3), stride=(1, 1), padding=(1, 1), groups=176, bias=False)
            (bn): BatchNorm2d(176, eps=0.001, momentum=0.03, affine=True, track_running_stats=True)
            (act): Hardswish()
          )
        )
        (conv_pw_3): ConvBNHS(
          (block): ConvModule(
            (conv): Conv2d(176, 176, kernel_size=(1, 1), stride=(1, 1), bias=False)
            (bn): BatchNorm2d(176, eps=0.001, momentum=0.03, affine=True, track_running_stats=True)
            (act): Hardswish()
          )
        )
      )
      (1): Lite_EffiBlockS1(
        (conv_pw_1): ConvBNHS(
          (block): ConvModule(
            (conv): Conv2d(88, 88, kernel_size=(1, 1), stride=(1, 1), bias=False)
            (bn): BatchNorm2d(88, eps=0.001, momentum=0.03, affine=True, track_running_stats=True)
            (act): Hardswish()
          )
        )
        (conv_dw_1): ConvBN(
          (block): ConvModule(
            (conv): Conv2d(88, 88, kernel_size=(3, 3), stride=(1, 1), padding=(1, 1), groups=88, bias=False)
            (bn): BatchNorm2d(88, eps=0.001, momentum=0.03, affine=True, track_running_stats=True)
          )
        )
        (se): SEBlock(
          (avg_pool): AdaptiveAvgPool2d(output_size=1)
          (conv1): Conv2d(88, 22, kernel_size=(1, 1), stride=(1, 1))
          (relu): ReLU(inplace=True)
          (conv2): Conv2d(22, 88, kernel_size=(1, 1), stride=(1, 1))
          (hardsigmoid): Hardsigmoid()
        )
        (conv_1): ConvBNHS(
          (block): ConvModule(
            (conv): Conv2d(88, 88, kernel_size=(1, 1), stride=(1, 1), bias=False)
            (bn): BatchNorm2d(88, eps=0.001, momentum=0.03, affine=True, track_running_stats=True)
            (act): Hardswish()
          )
        )
      )
      (2): Lite_EffiBlockS1(
        (conv_pw_1): ConvBNHS(
          (block): ConvModule(
            (conv): Conv2d(88, 88, kernel_size=(1, 1), stride=(1, 1), bias=False)
            (bn): BatchNorm2d(88, eps=0.001, momentum=0.03, affine=True, track_running_stats=True)
            (act): Hardswish()
          )
        )
        (conv_dw_1): ConvBN(
          (block): ConvModule(
            (conv): Conv2d(88, 88, kernel_size=(3, 3), stride=(1, 1), padding=(1, 1), groups=88, bias=False)
            (bn): BatchNorm2d(88, eps=0.001, momentum=0.03, affine=True, track_running_stats=True)
          )
        )
        (se): SEBlock(
          (avg_pool): AdaptiveAvgPool2d(output_size=1)
          (conv1): Conv2d(88, 22, kernel_size=(1, 1), stride=(1, 1))
          (relu): ReLU(inplace=True)
          (conv2): Conv2d(22, 88, kernel_size=(1, 1), stride=(1, 1))
          (hardsigmoid): Hardsigmoid()
        )
        (conv_1): ConvBNHS(
          (block): ConvModule(
            (conv): Conv2d(88, 88, kernel_size=(1, 1), stride=(1, 1), bias=False)
            (bn): BatchNorm2d(88, eps=0.001, momentum=0.03, affine=True, track_running_stats=True)
            (act): Hardswish()
          )
        )
      )
    )
  )
  (neck): Lite_EffiNeck(
    (reduce_layer0): ConvBNHS(
      (block): ConvModule(
        (conv): Conv2d(176, 96, kernel_size=(1, 1), stride=(1, 1), bias=False)
        (bn): BatchNorm2d(96, eps=0.001, momentum=0.03, affine=True, track_running_stats=True)
        (act): Hardswish()
      )
    )
    (reduce_layer1): ConvBNHS(
      (block): ConvModule(
        (conv): Conv2d(96, 96, kernel_size=(1, 1), stride=(1, 1), bias=False)
        (bn): BatchNorm2d(96, eps=0.001, momentum=0.03, affine=True, track_running_stats=True)
        (act): Hardswish()
      )
    )
    (reduce_layer2): ConvBNHS(
      (block): ConvModule(
        (conv): Conv2d(48, 96, kernel_size=(1, 1), stride=(1, 1), bias=False)
        (bn): BatchNorm2d(96, eps=0.001, momentum=0.03, affine=True, track_running_stats=True)
        (act): Hardswish()
      )
    )
    (upsample0): Upsample(scale_factor=2.0, mode='nearest')
    (upsample1): Upsample(scale_factor=2.0, mode='nearest')
    (Csp_p4): CSPBlock(
      (conv_1): ConvBNHS(
        (block): ConvModule(
          (conv): Conv2d(192, 48, kernel_size=(1, 1), stride=(1, 1), bias=False)
          (bn): BatchNorm2d(48, eps=0.001, momentum=0.03, affine=True, track_running_stats=True)
          (act): Hardswish()
        )
      )
      (conv_2): ConvBNHS(
        (block): ConvModule(
          (conv): Conv2d(192, 48, kernel_size=(1, 1), stride=(1, 1), bias=False)
          (bn): BatchNorm2d(48, eps=0.001, momentum=0.03, affine=True, track_running_stats=True)
          (act): Hardswish()
        )
      )
      (conv_3): ConvBNHS(
        (block): ConvModule(
          (conv): Conv2d(96, 96, kernel_size=(1, 1), stride=(1, 1), bias=False)
          (bn): BatchNorm2d(96, eps=0.001, momentum=0.03, affine=True, track_running_stats=True)
          (act): Hardswish()
        )
      )
      (blocks): DarknetBlock(
        (conv_1): ConvBNHS(
          (block): ConvModule(
            (conv): Conv2d(48, 48, kernel_size=(1, 1), stride=(1, 1), bias=False)
            (bn): BatchNorm2d(48, eps=0.001, momentum=0.03, affine=True, track_running_stats=True)
            (act): Hardswish()
          )
        )
        (conv_2): DPBlock(
          (conv_dw_1): Conv2d(48, 48, kernel_size=(5, 5), stride=(1, 1), padding=(2, 2), groups=48)
          (bn_1): BatchNorm2d(48, eps=0.001, momentum=0.03, affine=True, track_running_stats=True)
          (act_1): Hardswish()
          (conv_pw_1): Conv2d(48, 48, kernel_size=(1, 1), stride=(1, 1))
          (bn_2): BatchNorm2d(48, eps=0.001, momentum=0.03, affine=True, track_running_stats=True)
          (act_2): Hardswish()
        )
      )
    )
    (Csp_p3): CSPBlock(
      (conv_1): ConvBNHS(
        (block): ConvModule(
          (conv): Conv2d(192, 48, kernel_size=(1, 1), stride=(1, 1), bias=False)
          (bn): BatchNorm2d(48, eps=0.001, momentum=0.03, affine=True, track_running_stats=True)
          (act): Hardswish()
        )
      )
      (conv_2): ConvBNHS(
        (block): ConvModule(
          (conv): Conv2d(192, 48, kernel_size=(1, 1), stride=(1, 1), bias=False)
          (bn): BatchNorm2d(48, eps=0.001, momentum=0.03, affine=True, track_running_stats=True)
          (act): Hardswish()
        )
      )
      (conv_3): ConvBNHS(
        (block): ConvModule(
          (conv): Conv2d(96, 96, kernel_size=(1, 1), stride=(1, 1), bias=False)
          (bn): BatchNorm2d(96, eps=0.001, momentum=0.03, affine=True, track_running_stats=True)
          (act): Hardswish()
        )
      )
      (blocks): DarknetBlock(
        (conv_1): ConvBNHS(
          (block): ConvModule(
            (conv): Conv2d(48, 48, kernel_size=(1, 1), stride=(1, 1), bias=False)
            (bn): BatchNorm2d(48, eps=0.001, momentum=0.03, affine=True, track_running_stats=True)
            (act): Hardswish()
          )
        )
        (conv_2): DPBlock(
          (conv_dw_1): Conv2d(48, 48, kernel_size=(5, 5), stride=(1, 1), padding=(2, 2), groups=48)
          (bn_1): BatchNorm2d(48, eps=0.001, momentum=0.03, affine=True, track_running_stats=True)
          (act_1): Hardswish()
          (conv_pw_1): Conv2d(48, 48, kernel_size=(1, 1), stride=(1, 1))
          (bn_2): BatchNorm2d(48, eps=0.001, momentum=0.03, affine=True, track_running_stats=True)
          (act_2): Hardswish()
        )
      )
    )
    (Csp_n3): CSPBlock(
      (conv_1): ConvBNHS(
        (block): ConvModule(
          (conv): Conv2d(192, 48, kernel_size=(1, 1), stride=(1, 1), bias=False)
          (bn): BatchNorm2d(48, eps=0.001, momentum=0.03, affine=True, track_running_stats=True)
          (act): Hardswish()
        )
      )
      (conv_2): ConvBNHS(
        (block): ConvModule(
          (conv): Conv2d(192, 48, kernel_size=(1, 1), stride=(1, 1), bias=False)
          (bn): BatchNorm2d(48, eps=0.001, momentum=0.03, affine=True, track_running_stats=True)
          (act): Hardswish()
        )
      )
      (conv_3): ConvBNHS(
        (block): ConvModule(
          (conv): Conv2d(96, 96, kernel_size=(1, 1), stride=(1, 1), bias=False)
          (bn): BatchNorm2d(96, eps=0.001, momentum=0.03, affine=True, track_running_stats=True)
          (act): Hardswish()
        )
      )
      (blocks): DarknetBlock(
        (conv_1): ConvBNHS(
          (block): ConvModule(
            (conv): Conv2d(48, 48, kernel_size=(1, 1), stride=(1, 1), bias=False)
            (bn): BatchNorm2d(48, eps=0.001, momentum=0.03, affine=True, track_running_stats=True)
            (act): Hardswish()
          )
        )
        (conv_2): DPBlock(
          (conv_dw_1): Conv2d(48, 48, kernel_size=(5, 5), stride=(1, 1), padding=(2, 2), groups=48)
          (bn_1): BatchNorm2d(48, eps=0.001, momentum=0.03, affine=True, track_running_stats=True)
          (act_1): Hardswish()
          (conv_pw_1): Conv2d(48, 48, kernel_size=(1, 1), stride=(1, 1))
          (bn_2): BatchNorm2d(48, eps=0.001, momentum=0.03, affine=True, track_running_stats=True)
          (act_2): Hardswish()
        )
      )
    )
    (Csp_n4): CSPBlock(
      (conv_1): ConvBNHS(
        (block): ConvModule(
          (conv): Conv2d(192, 48, kernel_size=(1, 1), stride=(1, 1), bias=False)
          (bn): BatchNorm2d(48, eps=0.001, momentum=0.03, affine=True, track_running_stats=True)
          (act): Hardswish()
        )
      )
      (conv_2): ConvBNHS(
        (block): ConvModule(
          (conv): Conv2d(192, 48, kernel_size=(1, 1), stride=(1, 1), bias=False)
          (bn): BatchNorm2d(48, eps=0.001, momentum=0.03, affine=True, track_running_stats=True)
          (act): Hardswish()
        )
      )
      (conv_3): ConvBNHS(
        (block): ConvModule(
          (conv): Conv2d(96, 96, kernel_size=(1, 1), stride=(1, 1), bias=False)
          (bn): BatchNorm2d(96, eps=0.001, momentum=0.03, affine=True, track_running_stats=True)
          (act): Hardswish()
        )
      )
      (blocks): DarknetBlock(
        (conv_1): ConvBNHS(
          (block): ConvModule(
            (conv): Conv2d(48, 48, kernel_size=(1, 1), stride=(1, 1), bias=False)
            (bn): BatchNorm2d(48, eps=0.001, momentum=0.03, affine=True, track_running_stats=True)
            (act): Hardswish()
          )
        )
        (conv_2): DPBlock(
          (conv_dw_1): Conv2d(48, 48, kernel_size=(5, 5), stride=(1, 1), padding=(2, 2), groups=48)
          (bn_1): BatchNorm2d(48, eps=0.001, momentum=0.03, affine=True, track_running_stats=True)
          (act_1): Hardswish()
          (conv_pw_1): Conv2d(48, 48, kernel_size=(1, 1), stride=(1, 1))
          (bn_2): BatchNorm2d(48, eps=0.001, momentum=0.03, affine=True, track_running_stats=True)
          (act_2): Hardswish()
        )
      )
    )
    (downsample2): DPBlock(
      (conv_dw_1): Conv2d(96, 96, kernel_size=(5, 5), stride=(2, 2), padding=(2, 2), groups=96)
      (bn_1): BatchNorm2d(96, eps=0.001, momentum=0.03, affine=True, track_running_stats=True)
      (act_1): Hardswish()
      (conv_pw_1): Conv2d(96, 96, kernel_size=(1, 1), stride=(1, 1))
      (bn_2): BatchNorm2d(96, eps=0.001, momentum=0.03, affine=True, track_running_stats=True)
      (act_2): Hardswish()
    )
    (downsample1): DPBlock(
      (conv_dw_1): Conv2d(96, 96, kernel_size=(5, 5), stride=(2, 2), padding=(2, 2), groups=96)
      (bn_1): BatchNorm2d(96, eps=0.001, momentum=0.03, affine=True, track_running_stats=True)
      (act_1): Hardswish()
      (conv_pw_1): Conv2d(96, 96, kernel_size=(1, 1), stride=(1, 1))
      (bn_2): BatchNorm2d(96, eps=0.001, momentum=0.03, affine=True, track_running_stats=True)
      (act_2): Hardswish()
    )
    (p6_conv_1): DPBlock(
      (conv_dw_1): Conv2d(96, 96, kernel_size=(5, 5), stride=(2, 2), padding=(2, 2), groups=96)
      (bn_1): BatchNorm2d(96, eps=0.001, momentum=0.03, affine=True, track_running_stats=True)
      (act_1): Hardswish()
      (conv_pw_1): Conv2d(96, 96, kernel_size=(1, 1), stride=(1, 1))
      (bn_2): BatchNorm2d(96, eps=0.001, momentum=0.03, affine=True, track_running_stats=True)
      (act_2): Hardswish()
    )
    (p6_conv_2): DPBlock(
      (conv_dw_1): Conv2d(96, 96, kernel_size=(5, 5), stride=(2, 2), padding=(2, 2), groups=96)
      (bn_1): BatchNorm2d(96, eps=0.001, momentum=0.03, affine=True, track_running_stats=True)
      (act_1): Hardswish()
      (conv_pw_1): Conv2d(96, 96, kernel_size=(1, 1), stride=(1, 1))
      (bn_2): BatchNorm2d(96, eps=0.001, momentum=0.03, affine=True, track_running_stats=True)
      (act_2): Hardswish()
    )
  )
  (detect): Detect(
    (stems): ModuleList(
      (0-3): 4 x DPBlock(
        (conv_dw_1): Conv2d(96, 96, kernel_size=(5, 5), stride=(1, 1), padding=(2, 2), groups=96)
        (bn_1): BatchNorm2d(96, eps=0.001, momentum=0.03, affine=True, track_running_stats=True)
        (act_1): Hardswish()
        (conv_pw_1): Conv2d(96, 96, kernel_size=(1, 1), stride=(1, 1))
        (bn_2): BatchNorm2d(96, eps=0.001, momentum=0.03, affine=True, track_running_stats=True)
        (act_2): Hardswish()
      )
    )
    (cls_convs): ModuleList(
      (0-3): 4 x DPBlock(
        (conv_dw_1): Conv2d(96, 96, kernel_size=(5, 5), stride=(1, 1), padding=(2, 2), groups=96)
        (bn_1): BatchNorm2d(96, eps=0.001, momentum=0.03, affine=True, track_running_stats=True)
        (act_1): Hardswish()
        (conv_pw_1): Conv2d(96, 96, kernel_size=(1, 1), stride=(1, 1))
        (bn_2): BatchNorm2d(96, eps=0.001, momentum=0.03, affine=True, track_running_stats=True)
        (act_2): Hardswish()
      )
    )
    (reg_convs): ModuleList(
      (0-3): 4 x DPBlock(
        (conv_dw_1): Conv2d(96, 96, kernel_size=(5, 5), stride=(1, 1), padding=(2, 2), groups=96)
        (bn_1): BatchNorm2d(96, eps=0.001, momentum=0.03, affine=True, track_running_stats=True)
        (act_1): Hardswish()
        (conv_pw_1): Conv2d(96, 96, kernel_size=(1, 1), stride=(1, 1))
        (bn_2): BatchNorm2d(96, eps=0.001, momentum=0.03, affine=True, track_running_stats=True)
        (act_2): Hardswish()
      )
    )
    (cls_preds): ModuleList(
      (0-3): 4 x Conv2d(96, 80, kernel_size=(1, 1), stride=(1, 1))
    )
    (reg_preds): ModuleList(
      (0-3): 4 x Conv2d(96, 4, kernel_size=(1, 1), stride=(1, 1))
    )
  )
)
img record infomation path is:./data/coco/images/.train2017_cache.json
Train: Checking formats of images with 8 process(es): 
…
